…
+    "num_ftrs = model_ft.fc.in_features\n",
+    "model_ft.fc = nn.Linear(num_ftrs, 2)\n",
     "\n",
-    "num_ftrs = model_ft.classifier.in_features\n",
-    "model_ft.classifier = nn.Linear(num_ftrs, 2)\n",
     "\n",
     "# Here the size of each output sample is set to 2.\n",
     "# Alternatively, it can be generalized to nn.Linear(num_ftrs, len(class_names)).\n",
@@ -735,7 +680,111 @@
   },
   {
    "cell_type": "code",
-   "execution_count": 8,
+   "execution_count": 7,
+   "metadata": {},
+   "outputs": [
+    {
+     "data": {
+      "text/plain": [
+       "ResNet(\n",
+       "  (conv1): Conv2d(4, 64, kernel_size=(7, 7), stride=(2, 2), padding=(3, 3), bias=False)\n",
+       "  (bn1): BatchNorm2d(64, eps=1e-05, momentum=0.1, affine=True, track_running_stats=True)\n",
+       "  (relu): ReLU(inplace=True)\n",
+       "  (maxpool): MaxPool2d(kernel_size=3, stride=2, padding=1, dilation=1, ceil_mode=False)\n",
+       "  (layer1): Sequential(\n",
+       "    (0): BasicBlock(\n",
+       "      (conv1): Conv2d(64, 64, kernel_size=(3, 3), stride=(1, 1), padding=(1, 1), bias=False)\n",
+       "      (bn1): BatchNorm2d(64, eps=1e-05, momentum=0.1, affine=True, track_running_stats=True)\n",
+       "      (relu): ReLU(inplace=True)\n",
+       "      (conv2): Conv2d(64, 64, kernel_size=(3, 3), stride=(1, 1), padding=(1, 1), bias=False)\n",
+       "      (bn2): BatchNorm2d(64, eps=1e-05, momentum=0.1, affine=True, track_running_stats=True)\n",
+       "    )\n",
+       "    (1): BasicBlock(\n",
+       "      (conv1): Conv2d(64, 64, kernel_size=(3, 3), stride=(1, 1), padding=(1, 1), bias=False)\n",
+       "      (bn1): BatchNorm2d(64, eps=1e-05, momentum=0.1, affine=True, track_running_stats=True)\n",
+       "      (relu): ReLU(inplace=True)\n",
+       "      (conv2): Conv2d(64, 64, kernel_size=(3, 3), stride=(1, 1), padding=(1, 1), bias=False)\n",
+       "      (bn2): BatchNorm2d(64, eps=1e-05, momentum=0.1, affine=True, track_running_stats=True)\n",
+       "    )\n",
+       "  )\n",
+       "  (layer2): Sequential(\n",
+       "    (0): BasicBlock(\n",
+       "      (conv1): Conv2d(64, 128, kernel_size=(3, 3), stride=(2, 2), padding=(1, 1), bias=False)\n",
+       "      (bn1): BatchNorm2d(128, eps=1e-05, momentum=0.1, affine=True, track_running_stats=True)\n",
+       "      (relu): ReLU(inplace=True)\n",
+       "      (conv2): Conv2d(128, 128, kernel_size=(3, 3), stride=(1, 1), padding=(1, 1), bias=False)\n",
+       "      (bn2): BatchNorm2d(128, eps=1e-05, momentum=0.1, affine=True, track_running_stats=True)\n",
+       "      (downsample): Sequential(\n",
+       "        (0): Conv2d(64, 128, kernel_size=(1, 1), stride=(2, 2), bias=False)\n",
+       "        (1): BatchNorm2d(128, eps=1e-05, momentum=0.1, affine=True, track_running_stats=True)\n",
+       "      )\n",
+       "    )\n",
+       "    (1): BasicBlock(\n",
+       "      (conv1): Conv2d(128, 128, kernel_size=(3, 3), stride=(1, 1), padding=(1, 1), bias=False)\n",
+       "      (bn1): BatchNorm2d(128, eps=1e-05, momentum=0.1, affine=True, track_running_stats=True)\n",
+       "      (relu): ReLU(inplace=True)\n",
+       "      (conv2): Conv2d(128, 128, kernel_size=(3, 3), stride=(1, 1), padding=(1, 1), bias=False)\n",
+       "      (bn2): BatchNorm2d(128, eps=1e-05, momentum=0.1, affine=True, track_running_stats=True)\n",
+       "    )\n",
+       "  )\n",
+       "  (layer3): Sequential(\n",
+       "    (0): BasicBlock(\n",
+       "      (conv1): Conv2d(128, 256, kernel_size=(3, 3), stride=(2, 2), padding=(1, 1), bias=False)\n",
+       "      (bn1): BatchNorm2d(256, eps=1e-05, momentum=0.1, affine=True, track_running_stats=True)\n",
+       "      (relu): ReLU(inplace=True)\n",
+       "      (conv2): Conv2d(256, 256, kernel_size=(3, 3), stride=(1, 1), padding=(1, 1), bias=False)\n",
+       "      (bn2): BatchNorm2d(256, eps=1e-05, momentum=0.1, affine=True, track_running_stats=True)\n",
+       "      (downsample): Sequential(\n",
+       "        (0): Conv2d(128, 256, kernel_size=(1, 1), stride=(2, 2), bias=False)\n",
+       "        (1): BatchNorm2d(256, eps=1e-05, momentum=0.1, affine=True, track_running_stats=True)\n",
+       "      )\n",
+       "    )\n",
+       "    (1): BasicBlock(\n",
+       "      (conv1): Conv2d(256, 256, kernel_size=(3, 3), stride=(1, 1), padding=(1, 1), bias=False)\n",
+       "      (bn1): BatchNorm2d(256, eps=1e-05, momentum=0.1, affine=True, track_running_stats=True)\n",
+       "      (relu): ReLU(inplace=True)\n",
+       "      (conv2): Conv2d(256, 256, kernel_size=(3, 3), stride=(1, 1), padding=(1, 1), bias=False)\n",
+       "      (bn2): BatchNorm2d(256, eps=1e-05, momentum=0.1, affine=True, track_running_stats=True)\n",
+       "    )\n",
+       "  )\n",
+       "  (layer4): Sequential(\n",
+       "    (0): BasicBlock(\n",
+       "      (conv1): Conv2d(256, 512, kernel_size=(3, 3), stride=(2, 2), padding=(1, 1), bias=False)\n",
+       "      (bn1): BatchNorm2d(512, eps=1e-05, momentum=0.1, affine=True, track_running_stats=True)\n",
+       "      (relu): ReLU(inplace=True)\n",
+       "      (conv2): Conv2d(512, 512, kernel_size=(3, 3), stride=(1, 1), padding=(1, 1), bias=False)\n",
+       "      (bn2): BatchNorm2d(512, eps=1e-05, momentum=0.1, affine=True, track_running_stats=True)\n",
+       "      (downsample): Sequential(\n",
+       "        (0): Conv2d(256, 512, kernel_size=(1, 1), stride=(2, 2), bias=False)\n",
+       "        (1): BatchNorm2d(512, eps=1e-05, momentum=0.1, affine=True, track_running_stats=True)\n",
+       "      )\n",
+       "    )\n",
+       "    (1): BasicBlock(\n",
+       "      (conv1): Conv2d(512, 512, kernel_size=(3, 3), stride=(1, 1), padding=(1, 1), bias=False)\n",
+       "      (bn1): BatchNorm2d(512, eps=1e-05, momentum=0.1, affine=True, track_running_stats=True)\n",
+       "      (relu): ReLU(inplace=True)\n",
+       "      (conv2): Conv2d(512, 512, kernel_size=(3, 3), stride=(1, 1), padding=(1, 1), bias=False)\n",
+       "      (bn2): BatchNorm2d(512, eps=1e-05, momentum=0.1, affine=True, track_running_stats=True)\n",
+       "    )\n",
+       "  )\n",
+       "  (avgpool): AvgPool2d(kernel_size=7, stride=1, padding=0)\n",
+       "  (fc): Linear(in_features=512, out_features=2, bias=True)\n",
+       ")"
+      ]
+     },
+     "execution_count": 7,
+     "metadata": {},
+     "output_type": "execute_result"
+    }
+   ],
+   "source": [
+    "\n",
+    "model_ft"
+   ]
+  },
+  {
+   "cell_type": "code",
+   "execution_count": 13,
    "metadata": {
     "scrolled": true
    },
@@ -746,7 +795,7 @@
        "\n",
        "                Logging results to <a href=\"https://wandb.com\" target=\"_blank\">Weights & Biases</a> <a href=\"https://docs.wandb.com/integrations/jupyter.html\" target=\"_blank\">(Documentation)</a>.<br/>\n",
…
