…
-      "----------\n",
-      "train Loss: 0.2429 Acc: 0.9057\n",
-      "val Loss: 0.2429 Acc: 0.9085\n",
-      "\n",
-      "Epoch 17/24\n",
-      "----------\n",
-      "train Loss: 0.3195 Acc: 0.8566\n",
-      "val Loss: 0.2560 Acc: 0.9085\n",
-      "\n",
-      "Epoch 18/24\n",
-      "----------\n",
-      "train Loss: 0.2795 Acc: 0.8975\n",
-      "val Loss: 0.2528 Acc: 0.9150\n",
-      "\n",
-      "Epoch 19/24\n",
-      "----------\n",
-      "train Loss: 0.3156 Acc: 0.8770\n",
-      "val Loss: 0.2462 Acc: 0.9150\n",
-      "\n",
-      "Epoch 20/24\n",
+      "EfficientNet(\n",
+      "  (conv_stem): Conv2d(3, 32, kernel_size=(3, 3), stride=(2, 2), padding=(1, 1), bias=False)\n",
+      "  (bn1): BatchNorm2d(32, eps=1e-05, momentum=0.1, affine=True, track_running_stats=True)\n",
+      "  (act1): ReLU(inplace=True)\n",
+      "  (blocks): Sequential(\n",
+      "    (0): Sequential(\n",
+      "      (0): DepthwiseSeparableConv(\n",
+      "        (conv_dw): Conv2d(32, 32, kernel_size=(3, 3), stride=(1, 1), padding=(1, 1), groups=32, bias=False)\n",
+      "        (bn1): BatchNorm2d(32, eps=1e-05, momentum=0.1, affine=True, track_running_stats=True)\n",
+      "        (act1): ReLU(inplace=True)\n",
+      "        (conv_pw): Conv2d(32, 32, kernel_size=(1, 1), stride=(1, 1), bias=False)\n",
+      "        (bn2): BatchNorm2d(32, eps=1e-05, momentum=0.1, affine=True, track_running_stats=True)\n",
+      "        (act2): Identity()\n",
+      "      )\n",
+      "    )\n",
+      "    (1): Sequential(\n",
+      "      (0): InvertedResidual(\n",
+      "        (conv_pw): MixedConv2d(\n",
+      "          (0): Conv2d(16, 96, kernel_size=(1, 1), stride=(1, 1), bias=False)\n",
+      "          (1): Conv2d(16, 96, kernel_size=(1, 1), stride=(1, 1), bias=False)\n",
+      "        )\n",
+      "        (bn1): BatchNorm2d(192, eps=1e-05, momentum=0.1, affine=True, track_running_stats=True)\n",
+      "        (act1): ReLU(inplace=True)\n",
+      "        (conv_dw): MixedConv2d(\n",
+      "          (0): Conv2d(64, 64, kernel_size=(3, 3), stride=(2, 2), padding=(1, 1), groups=64, bias=False)\n",
+      "          (1): Conv2d(64, 64, kernel_size=(5, 5), stride=(2, 2), padding=(2, 2), groups=64, bias=False)\n",
+      "          (2): Conv2d(64, 64, kernel_size=(7, 7), stride=(2, 2), padding=(3, 3), groups=64, bias=False)\n",
+      "        )\n",
+      "        (bn2): BatchNorm2d(192, eps=1e-05, momentum=0.1, affine=True, track_running_stats=True)\n",
+      "        (act2): ReLU(inplace=True)\n",
+      "        (conv_pwl): MixedConv2d(\n",
+      "          (0): Conv2d(96, 20, kernel_size=(1, 1), stride=(1, 1), bias=False)\n",
+      "          (1): Conv2d(96, 20, kernel_size=(1, 1), stride=(1, 1), bias=False)\n",
+      "        )\n",
+      "        (bn3): BatchNorm2d(40, eps=1e-05, momentum=0.1, affine=True, track_running_stats=True)\n",
+      "      )\n",
+      "      (1): InvertedResidual(\n",
+      "        (conv_pw): MixedConv2d(\n",
+      "          (0): Conv2d(20, 60, kernel_size=(1, 1), stride=(1, 1), bias=False)\n",
+      "          (1): Conv2d(20, 60, kernel_size=(1, 1), stride=(1, 1), bias=False)\n",
+      "        )\n",
+      "        (bn1): BatchNorm2d(120, eps=1e-05, momentum=0.1, affine=True, track_running_stats=True)\n",
+      "        (act1): ReLU(inplace=True)\n",
+      "        (conv_dw): Conv2d(120, 120, kernel_size=(3, 3), stride=(1, 1), padding=(1, 1), groups=120, bias=False)\n",
+      "        (bn2): BatchNorm2d(120, eps=1e-05, momentum=0.1, affine=True, track_running_stats=True)\n",
+      "        (act2): ReLU(inplace=True)\n",
+      "        (conv_pwl): MixedConv2d(\n",
+      "          (0): Conv2d(60, 20, kernel_size=(1, 1), stride=(1, 1), bias=False)\n",
+      "          (1): Conv2d(60, 20, kernel_size=(1, 1), stride=(1, 1), bias=False)\n",
+      "        )\n",
+      "        (bn3): BatchNorm2d(40, eps=1e-05, momentum=0.1, affine=True, track_running_stats=True)\n",
+      "      )\n",
+      "    )\n",
+      "    (2): Sequential(\n",
+      "      (0): InvertedResidual(\n",
+      "        (conv_pw): Conv2d(40, 240, kernel_size=(1, 1), stride=(1, 1), bias=False)\n",
+      "        (bn1): BatchNorm2d(240, eps=1e-05, momentum=0.1, affine=True, track_running_stats=True)\n",
+      "        (act1): Swish()\n",
+      "        (conv_dw): MixedConv2d(\n",
+      "          (0): Conv2d(60, 60, kernel_size=(3, 3), stride=(2, 2), padding=(1, 1), groups=60, bias=False)\n",
+      "          (1): Conv2d(60, 60, kernel_size=(5, 5), stride=(2, 2), padding=(2, 2), groups=60, bias=False)\n",
+      "          (2): Conv2d(60, 60, kernel_size=(7, 7), stride=(2, 2), padding=(3, 3), groups=60, bias=False)\n",
+      "          (3): Conv2d(60, 60, kernel_size=(9, 9), stride=(2, 2), padding=(4, 4), groups=60, bias=False)\n",
+      "        )\n",
+      "        (bn2): BatchNorm2d(240, eps=1e-05, momentum=0.1, affine=True, track_running_stats=True)\n",
+      "        (act2): Swish()\n",
+      "        (se): SqueezeExcite(\n",
+      "          (avg_pool): AdaptiveAvgPool2d(output_size=1)\n",
+      "          (conv_reduce): Conv2d(240, 20, kernel_size=(1, 1), stride=(1, 1))\n",
+      "          (act1): Swish()\n",
+      "          (conv_expand): Conv2d(20, 240, kernel_size=(1, 1), stride=(1, 1))\n",
+      "        )\n",
+      "        (conv_pwl): Conv2d(240, 56, kernel_size=(1, 1), stride=(1, 1), bias=False)\n",
+      "        (bn3): BatchNorm2d(56, eps=1e-05, momentum=0.1, affine=True, track_running_stats=True)\n",
+      "      )\n",
+      "      (1): InvertedResidual(\n",
+      "        (conv_pw): MixedConv2d(\n",
+      "          (0): Conv2d(28, 168, kernel_size=(1, 1), stride=(1, 1), bias=False)\n",
+      "          (1): Conv2d(28, 168, kernel_size=(1, 1), stride=(1, 1), bias=False)\n",
+      "        )\n",
+      "        (bn1): BatchNorm2d(336, eps=1e-05, momentum=0.1, affine=True, track_running_stats=True)\n",
+      "        (act1): Swish()\n",
+      "        (conv_dw): MixedConv2d(\n",
+      "          (0): Conv2d(168, 168, kernel_size=(3, 3), stride=(1, 1), padding=(1, 1), groups=168, bias=False)\n",
+      "          (1): Conv2d(168, 168, kernel_size=(5, 5), stride=(1, 1), padding=(2, 2), groups=168, bias=False)\n",
+      "        )\n",
+      "        (bn2): BatchNorm2d(336, eps=1e-05, momentum=0.1, affine=True, track_running_stats=True)\n",
+      "        (act2): Swish()\n",
+      "        (se): SqueezeExcite(\n",
+      "          (avg_pool): AdaptiveAvgPool2d(output_size=1)\n",
+      "          (conv_reduce): Conv2d(336, 28, kernel_size=(1, 1), stride=(1, 1))\n",
+      "          (act1): Swish()\n",
+      "          (conv_expand): Conv2d(28, 336, kernel_size=(1, 1), stride=(1, 1))\n",
+      "        )\n",
+      "        (conv_pwl): MixedConv2d(\n",
+      "          (0): Conv2d(168, 28, kernel_size=(1, 1), stride=(1, 1), bias=False)\n",
+      "          (1): Conv2d(168, 28, kernel_size=(1, 1), stride=(1, 1), bias=False)\n",
+      "        )\n",
+      "        (bn3): BatchNorm2d(56, eps=1e-05, momentum=0.1, affine=True, track_running_stats=True)\n",
+      "      )\n",
+      "      (2): InvertedResidual(\n",
+      "        (conv_pw): MixedConv2d(\n",
+      "          (0): Conv2d(28, 168, kernel_size=(1, 1), stride=(1, 1), bias=False)\n",
+      "          (1): Conv2d(28, 168, kernel_size=(1, 1), stride=(1, 1), bias=False)\n",
+      "        )\n",
+      "        (bn1): BatchNorm2d(336, eps=1e-05, momentum=0.1, affine=True, track_running_stats=True)\n",
+      "        (act1): Swish()\n",
+      "        (conv_dw): MixedConv2d(\n",
+      "          (0): Conv2d(168, 168, kernel_size=(3, 3), stride=(1, 1), padding=(1, 1), groups=168, bias=False)\n",
+      "          (1): Conv2d(168, 168, kernel_size=(5, 5), stride=(1, 1), padding=(2, 2), groups=168, bias=False)\n",
+      "        )\n",
+      "        (bn2): BatchNorm2d(336, eps=1e-05, momentum=0.1, affine=True, track_running_stats=True)\n",
+      "        (act2): Swish()\n",
+      "        (se): SqueezeExcite(\n",
+      "          (avg_pool): AdaptiveAvgPool2d(output_size=1)\n",
+      "          (conv_reduce): Conv2d(336, 28, kernel_size=(1, 1), stride=(1, 1))\n",
+      "          (act1): Swish()\n",
+      "          (conv_expand): Conv2d(28, 336, kernel_size=(1, 1), stride=(1, 1))\n",
+      "        )\n",
+      "        (conv_pwl): MixedConv2d(\n",
+      "          (0): Conv2d(168, 28, kernel_size=(1, 1), stride=(1, 1), bias=False)\n",
+      "          (1): Conv2d(168, 28, kernel_size=(1, 1), stride=(1, 1), bias=False)\n",
+      "        )\n",
+      "        (bn3): BatchNorm2d(56, eps=1e-05, momentum=0.1, affine=True, track_running_stats=True)\n",
+      "      )\n",
+      "      (3): InvertedResidual(\n",
+      "        (conv_pw): MixedConv2d(\n",
+      "          (0): Conv2d(28, 168, kernel_size=(1, 1), stride=(1, 1), bias=False)\n",
+      "          (1): Conv2d(28, 168, kernel_size=(1, 1), stride=(1, 1), bias=False)\n",
+      "        )\n",
+      "        (bn1): BatchNorm2d(336, eps=1e-05, momentum=0.1, affine=True, track_running_stats=True)\n",
+      "        (act1): Swish()\n",
+      "        (conv_dw): MixedConv2d(\n",
+      "          (0): Conv2d(168, 168, kernel_size=(3, 3), stride=(1, 1), padding=(1, 1), groups=168, bias=False)\n",
+      "          (1): Conv2d(168, 168, kernel_size=(5, 5), stride=(1, 1), padding=(2, 2), groups=168, bias=False)\n",
+      "        )\n",
+      "        (bn2): BatchNorm2d(336, eps=1e-05, momentum=0.1, affine=True, track_running_stats=True)\n",
+      "        (act2): Swish()\n",
+      "        (se): SqueezeExcite(\n",
+      "          (avg_pool): AdaptiveAvgPool2d(output_size=1)\n",
+      "          (conv_reduce): Conv2d(336, 28, kernel_size=(1, 1), stride=(1, 1))\n",
+      "          (act1): Swish()\n",
+      "          (conv_expand): Conv2d(28, 336, kernel_size=(1, 1), stride=(1, 1))\n",
+      "        )\n",
+      "        (conv_pwl): MixedConv2d(\n",
+      "          (0): Conv2d(168, 28, kernel_size=(1, 1), stride=(1, 1), bias=False)\n",
+      "          (1): Conv2d(168, 28, kernel_size=(1, 1), stride=(1, 1), bias=False)\n",
+      "        )\n",
+      "        (bn3): BatchNorm2d(56, eps=1e-05, momentum=0.1, affine=True, track_running_stats=True)\n",
+      "      )\n",
+      "    )\n",
+      "    (3): Sequential(\n",
+      "      (0): InvertedResidual(\n",
+      "        (conv_pw): Conv2d(56, 336, kernel_size=(1, 1), stride=(1, 1), bias=False)\n",
+      "        (bn1): BatchNorm2d(336, eps=1e-05, momentum=0.1, affine=True, track_running_stats=True)\n",
+      "        (act1): Swish()\n",
+      "        (conv_dw): MixedConv2d(\n",
+      "          (0): Conv2d(112, 112, kernel_size=(3, 3), stride=(2, 2), padding=(1, 1), groups=112, bias=False)\n",
+      "          (1): Conv2d(112, 112, kernel_size=(5, 5), stride=(2, 2), padding=(2, 2), groups=112, bias=False)\n",
+      "          (2): Conv2d(112, 112, kernel_size=(7, 7), stride=(2, 2), padding=(3, 3), groups=112, bias=False)\n",
+      "        )\n",
+      "        (bn2): BatchNorm2d(336, eps=1e-05, momentum=0.1, affine=True, track_running_stats=True)\n",
+      "        (act2): Swish()\n",
+      "        (se): SqueezeExcite(\n",
+      "          (avg_pool): AdaptiveAvgPool2d(output_size=1)\n",
+      "          (conv_reduce): Conv2d(336, 14, kernel_size=(1, 1), stride=(1, 1))\n",
+      "          (act1): Swish()\n",
+      "          (conv_expand): Conv2d(14, 336, kernel_size=(1, 1), stride=(1, 1))\n",
+      "        )\n",
+      "        (conv_pwl): Conv2d(336, 104, kernel_size=(1, 1), stride=(1, 1), bias=False)\n",
+      "        (bn3): BatchNorm2d(104, eps=1e-05, momentum=0.1, affine=True, track_running_stats=True)\n",
+      "      )\n",
+      "      (1): InvertedResidual(\n",
+      "        (conv_pw): MixedConv2d(\n",
+      "          (0): Conv2d(52, 312, kernel_size=(1, 1), stride=(1, 1), bias=False)\n",
+      "          (1): Conv2d(52, 312, kernel_size=(1, 1), stride=(1, 1), bias=False)\n",
+      "        )\n",
+      "        (bn1): BatchNorm2d(624, eps=1e-05, momentum=0.1, affine=True, track_running_stats=True)\n",
+      "        (act1): Swish()\n",
+      "        (conv_dw): MixedConv2d(\n",
+      "          (0): Conv2d(156, 156, kernel_size=(3, 3), stride=(1, 1), padding=(1, 1), groups=156, bias=False)\n",
+      "          (1): Conv2d(156, 156, kernel_size=(5, 5), stride=(1, 1), padding=(2, 2), groups=156, bias=False)\n",
+      "          (2): Conv2d(156, 156, kernel_size=(7, 7), stride=(1, 1), padding=(3, 3), groups=156, bias=False)\n",
+      "          (3): Conv2d(156, 156, kernel_size=(9, 9), stride=(1, 1), padding=(4, 4), groups=156, bias=False)\n",
+      "        )\n",
+      "        (bn2): BatchNorm2d(624, eps=1e-05, momentum=0.1, affine=True, track_running_stats=True)\n",
+      "        (act2): Swish()\n",
+      "        (se): SqueezeExcite(\n",
+      "          (avg_pool): AdaptiveAvgPool2d(output_size=1)\n",
+      "          (conv_reduce): Conv2d(624, 26, kernel_size=(1, 1), stride=(1, 1))\n",
+      "          (act1): Swish()\n",
+      "          (conv_expand): Conv2d(26, 624, kernel_size=(1, 1), stride=(1, 1))\n",
+      "        )\n",
+      "        (conv_pwl): MixedConv2d(\n",
+      "          (0): Conv2d(312, 52, kernel_size=(1, 1), stride=(1, 1), bias=False)\n",
+      "          (1): Conv2d(312, 52, kernel_size=(1, 1), stride=(1, 1), bias=False)\n",
+      "        )\n",
+      "        (bn3): BatchNorm2d(104, eps=1e-05, momentum=0.1, affine=True, track_running_stats=True)\n",
+      "      )\n",
+      "      (2): InvertedResidual(\n",
+      "        (conv_pw): MixedConv2d(\n",
+      "          (0): Conv2d(52, 312, kernel_size=(1, 1), stride=(1, 1), bias=False)\n",
+      "          (1): Conv2d(52, 312, kernel_size=(1, 1), stride=(1, 1), bias=False)\n",
+      "        )\n",
+      "        (bn1): BatchNorm2d(624, eps=1e-05, momentum=0.1, affine=True, track_running_stats=True)\n",
+      "        (act1): Swish()\n",
+      "        (conv_dw): MixedConv2d(\n",
+      "          (0): Conv2d(156, 156, kernel_size=(3, 3), stride=(1, 1), padding=(1, 1), groups=156, bias=False)\n",
+      "          (1): Conv2d(156, 156, kernel_size=(5, 5), stride=(1, 1), padding=(2, 2), groups=156, bias=False)\n",
+      "          (2): Conv2d(156, 156, kernel_size=(7, 7), stride=(1, 1), padding=(3, 3), groups=156, bias=False)\n",
+      "          (3): Conv2d(156, 156, kernel_size=(9, 9), stride=(1, 1), padding=(4, 4), groups=156, bias=False)\n",
+      "        )\n",
+      "        (bn2): BatchNorm2d(624, eps=1e-05, momentum=0.1, affine=True, track_running_stats=True)\n",
+      "        (act2): Swish()\n",
+      "        (se): SqueezeExcite(\n",
+      "          (avg_pool): AdaptiveAvgPool2d(output_size=1)\n",
+      "          (conv_reduce): Conv2d(624, 26, kernel_size=(1, 1), stride=(1, 1))\n",
+      "          (act1): Swish()\n",
+      "          (conv_expand): Conv2d(26, 624, kernel_size=(1, 1), stride=(1, 1))\n",
+      "        )\n",
+      "        (conv_pwl): MixedConv2d(\n",
+      "          (0): Conv2d(312, 52, kernel_size=(1, 1), stride=(1, 1), bias=False)\n",
+      "          (1): Conv2d(312, 52, kernel_size=(1, 1), stride=(1, 1), bias=False)\n",
+      "        )\n",
+      "        (bn3): BatchNorm2d(104, eps=1e-05, momentum=0.1, affine=True, track_running_stats=True)\n",
+      "      )\n",
+      "      (3): InvertedResidual(\n",
+      "        (conv_pw): MixedConv2d(\n",
+      "          (0): Conv2d(52, 312, kernel_size=(1, 1), stride=(1, 1), bias=False)\n",
+      "          (1): Conv2d(52, 312, kernel_size=(1, 1), stride=(1, 1), bias=False)\n",
+      "        )\n",
+      "        (bn1): BatchNorm2d(624, eps=1e-05, momentum=0.1, affine=True, track_running_stats=True)\n",
+      "        (act1): Swish()\n",
+      "        (conv_dw): MixedConv2d(\n",
+      "          (0): Conv2d(156, 156, kernel_size=(3, 3), stride=(1, 1), padding=(1, 1), groups=156, bias=False)\n",
+      "          (1): Conv2d(156, 156, kernel_size=(5, 5), stride=(1, 1), padding=(2, 2), groups=156, bias=False)\n",
+      "          (2): Conv2d(156, 156, kernel_size=(7, 7), stride=(1, 1), padding=(3, 3), groups=156, bias=False)\n",
+      "          (3): Conv2d(156, 156, kernel_size=(9, 9), stride=(1, 1), padding=(4, 4), groups=156, bias=False)\n",
+      "        )\n",
+      "        (bn2): BatchNorm2d(624, eps=1e-05, momentum=0.1, affine=True, track_running_stats=True)\n",
+      "        (act2): Swish()\n",
+      "        (se): SqueezeExcite(\n",
+      "          (avg_pool): AdaptiveAvgPool2d(output_size=1)\n",
+      "          (conv_reduce): Conv2d(624, 26, kernel_size=(1, 1), stride=(1, 1))\n",
+      "          (act1): Swish()\n",
+      "          (conv_expand): Conv2d(26, 624, kernel_size=(1, 1), stride=(1, 1))\n",
+      "        )\n",
+      "        (conv_pwl): MixedConv2d(\n",
+      "          (0): Conv2d(312, 52, kernel_size=(1, 1), stride=(1, 1), bias=False)\n",
+      "          (1): Conv2d(312, 52, kernel_size=(1, 1), stride=(1, 1), bias=False)\n",
+      "        )\n",
+      "        (bn3): BatchNorm2d(104, eps=1e-05, momentum=0.1, affine=True, track_running_stats=True)\n",
+      "      )\n",
+      "    )\n",
+      "    (4): Sequential(\n",
+      "      (0): InvertedResidual(\n",
+      "        (conv_pw): Conv2d(104, 624, kernel_size=(1, 1), stride=(1, 1), bias=False)\n",
+      "        (bn1): BatchNorm2d(624, eps=1e-05, momentum=0.1, affine=True, track_running_stats=True)\n",
+      "        (act1): Swish()\n",
+      "        (conv_dw): Conv2d(624, 624, kernel_size=(3, 3), stride=(1, 1), padding=(1, 1), groups=624, bias=False)\n",
+      "        (bn2): BatchNorm2d(624, eps=1e-05, momentum=0.1, affine=True, track_running_stats=True)\n",
+      "        (act2): Swish()\n",
+      "        (se): SqueezeExcite(\n",
+      "          (avg_pool): AdaptiveAvgPool2d(output_size=1)\n",
+      "          (conv_reduce): Conv2d(624, 52, kernel_size=(1, 1), stride=(1, 1))\n",
+      "          (act1): Swish()\n",
+      "          (conv_expand): Conv2d(52, 624, kernel_size=(1, 1), stride=(1, 1))\n",
+      "        )\n",
+      "        (conv_pwl): Conv2d(624, 160, kernel_size=(1, 1), stride=(1, 1), bias=False)\n",
+      "        (bn3): BatchNorm2d(160, eps=1e-05, momentum=0.1, affine=True, track_running_stats=True)\n",
+      "      )\n",
+      "      (1): InvertedResidual(\n",
+      "        (conv_pw): MixedConv2d(\n",
+      "          (0): Conv2d(80, 240, kernel_size=(1, 1), stride=(1, 1), bias=False)\n",
+      "          (1): Conv2d(80, 240, kernel_size=(1, 1), stride=(1, 1), bias=False)\n",
+      "        )\n",
+      "        (bn1): BatchNorm2d(480, eps=1e-05, momentum=0.1, affine=True, track_running_stats=True)\n",
+      "        (act1): Swish()\n",
+      "        (conv_dw): MixedConv2d(\n",
+      "          (0): Conv2d(120, 120, kernel_size=(3, 3), stride=(1, 1), padding=(1, 1), groups=120, bias=False)\n",
+      "          (1): Conv2d(120, 120, kernel_size=(5, 5), stride=(1, 1), padding=(2, 2), groups=120, bias=False)\n",
+      "          (2): Conv2d(120, 120, kernel_size=(7, 7), stride=(1, 1), padding=(3, 3), groups=120, bias=False)\n",
+      "          (3): Conv2d(120, 120, kernel_size=(9, 9), stride=(1, 1), padding=(4, 4), groups=120, bias=False)\n",
+      "        )\n",
+      "        (bn2): BatchNorm2d(480, eps=1e-05, momentum=0.1, affine=True, track_running_stats=True)\n",
+      "        (act2): Swish()\n",
+      "        (se): SqueezeExcite(\n",
+      "          (avg_pool): AdaptiveAvgPool2d(output_size=1)\n",
+      "          (conv_reduce): Conv2d(480, 80, kernel_size=(1, 1), stride=(1, 1))\n",
+      "          (act1): Swish()\n",
+      "          (conv_expand): Conv2d(80, 480, kernel_size=(1, 1), stride=(1, 1))\n",
+      "        )\n",
+      "        (conv_pwl): MixedConv2d(\n",
+      "          (0): Conv2d(240, 80, kernel_size=(1, 1), stride=(1, 1), bias=False)\n",
+      "          (1): Conv2d(240, 80, kernel_size=(1, 1), stride=(1, 1), bias=False)\n",
+      "        )\n",
+      "        (bn3): BatchNorm2d(160, eps=1e-05, momentum=0.1, affine=True, track_running_stats=True)\n",
+      "      )\n",
+      "      (2): InvertedResidual(\n",
+      "        (conv_pw): MixedConv2d(\n",
+      "          (0): Conv2d(80, 240, kernel_size=(1, 1), stride=(1, 1), bias=False)\n",
+      "          (1): Conv2d(80, 240, kernel_size=(1, 1), stride=(1, 1), bias=False)\n",
+      "        )\n",
+      "        (bn1): BatchNorm2d(480, eps=1e-05, momentum=0.1, affine=True, track_running_stats=True)\n",
+      "        (act1): Swish()\n",
+      "        (conv_dw): MixedConv2d(\n",
+      "          (0): Conv2d(120, 120, kernel_size=(3, 3), stride=(1, 1), padding=(1, 1), groups=120, bias=False)\n",
+      "          (1): Conv2d(120, 120, kernel_size=(5, 5), stride=(1, 1), padding=(2, 2), groups=120, bias=False)\n",
+      "          (2): Conv2d(120, 120, kernel_size=(7, 7), stride=(1, 1), padding=(3, 3), groups=120, bias=False)\n",
+      "          (3): Conv2d(120, 120, kernel_size=(9, 9), stride=(1, 1), padding=(4, 4), groups=120, bias=False)\n",
+      "        )\n",
+      "        (bn2): BatchNorm2d(480, eps=1e-05, momentum=0.1, affine=True, track_running_stats=True)\n",
+      "        (act2): Swish()\n",
+      "        (se): SqueezeExcite(\n",
+      "          (avg_pool): AdaptiveAvgPool2d(output_size=1)\n",
+      "          (conv_reduce): Conv2d(480, 80, kernel_size=(1, 1), stride=(1, 1))\n",
+      "          (act1): Swish()\n",
+      "          (conv_expand): Conv2d(80, 480, kernel_size=(1, 1), stride=(1, 1))\n",
+      "        )\n",
+      "        (conv_pwl): MixedConv2d(\n",
+      "          (0): Conv2d(240, 80, kernel_size=(1, 1), stride=(1, 1), bias=False)\n",
+      "          (1): Conv2d(240, 80, kernel_size=(1, 1), stride=(1, 1), bias=False)\n",
+      "        )\n",
+      "        (bn3): BatchNorm2d(160, eps=1e-05, momentum=0.1, affine=True, track_running_stats=True)\n",
+      "      )\n",
+      "      (3): InvertedResidual(\n",
+      "        (conv_pw): MixedConv2d(\n",
+      "          (0): Conv2d(80, 240, kernel_size=(1, 1), stride=(1, 1), bias=False)\n",
+      "          (1): Conv2d(80, 240, kernel_size=(1, 1), stride=(1, 1), bias=False)\n",
+      "        )\n",
+      "        (bn1): BatchNorm2d(480, eps=1e-05, momentum=0.1, affine=True, track_running_stats=True)\n",
+      "        (act1): Swish()\n",
+      "        (conv_dw): MixedConv2d(\n",
+      "          (0): Conv2d(120, 120, kernel_size=(3, 3), stride=(1, 1), padding=(1, 1), groups=120, bias=False)\n",
+      "          (1): Conv2d(120, 120, kernel_size=(5, 5), stride=(1, 1), padding=(2, 2), groups=120, bias=False)\n",
+      "          (2): Conv2d(120, 120, kernel_size=(7, 7), stride=(1, 1), padding=(3, 3), groups=120, bias=False)\n",
+      "          (3): Conv2d(120, 120, kernel_size=(9, 9), stride=(1, 1), padding=(4, 4), groups=120, bias=False)\n",
+      "        )\n",
+      "        (bn2): BatchNorm2d(480, eps=1e-05, momentum=0.1, affine=True, track_running_stats=True)\n",
+      "        (act2): Swish()\n",
+      "        (se): SqueezeExcite(\n",
+      "          (avg_pool): AdaptiveAvgPool2d(output_size=1)\n",
+      "          (conv_reduce): Conv2d(480, 80, kernel_size=(1, 1), stride=(1, 1))\n",
+      "          (act1): Swish()\n",
+      "          (conv_expand): Conv2d(80, 480, kernel_size=(1, 1), stride=(1, 1))\n",
+      "        )\n",
+      "        (conv_pwl): MixedConv2d(\n",
+      "          (0): Conv2d(240, 80, kernel_size=(1, 1), stride=(1, 1), bias=False)\n",
+      "          (1): Conv2d(240, 80, kernel_size=(1, 1), stride=(1, 1), bias=False)\n",
+      "        )\n",
+      "        (bn3): BatchNorm2d(160, eps=1e-05, momentum=0.1, affine=True, track_running_stats=True)\n",
+      "      )\n",
+      "    )\n",
+      "    (5): Sequential(\n",
+      "      (0): InvertedResidual(\n",
+      "        (conv_pw): Conv2d(160, 960, kernel_size=(1, 1), stride=(1, 1), bias=False)\n",
+      "        (bn1): BatchNorm2d(960, eps=1e-05, momentum=0.1, affine=True, track_running_stats=True)\n",
+      "        (act1): Swish()\n",
+      "        (conv_dw): MixedConv2d(\n",
+      "          (0): Conv2d(240, 240, kernel_size=(3, 3), stride=(2, 2), padding=(1, 1), groups=240, bias=False)\n",
+      "          (1): Conv2d(240, 240, kernel_size=(5, 5), stride=(2, 2), padding=(2, 2), groups=240, bias=False)\n",
+      "          (2): Conv2d(240, 240, kernel_size=(7, 7), stride=(2, 2), padding=(3, 3), groups=240, bias=False)\n",
+      "          (3): Conv2d(240, 240, kernel_size=(9, 9), stride=(2, 2), padding=(4, 4), groups=240, bias=False)\n",
+      "        )\n",
+      "        (bn2): BatchNorm2d(960, eps=1e-05, momentum=0.1, affine=True, track_running_stats=True)\n",
+      "        (act2): Swish()\n",
+      "        (se): SqueezeExcite(\n",
+      "          (avg_pool): AdaptiveAvgPool2d(output_size=1)\n",
+      "          (conv_reduce): Conv2d(960, 80, kernel_size=(1, 1), stride=(1, 1))\n",
+      "          (act1): Swish()\n",
+      "          (conv_expand): Conv2d(80, 960, kernel_size=(1, 1), stride=(1, 1))\n",
+      "        )\n",
+      "        (conv_pwl): Conv2d(960, 264, kernel_size=(1, 1), stride=(1, 1), bias=False)\n",
+      "        (bn3): BatchNorm2d(264, eps=1e-05, momentum=0.1, affine=True, track_running_stats=True)\n",
+      "      )\n",
+      "      (1): InvertedResidual(\n",
+      "        (conv_pw): Conv2d(264, 1584, kernel_size=(1, 1), stride=(1, 1), bias=False)\n",
+      "        (bn1): BatchNorm2d(1584, eps=1e-05, momentum=0.1, affine=True, track_running_stats=True)\n",
+      "        (act1): Swish()\n",
+      "        (conv_dw): MixedConv2d(\n",
+      "          (0): Conv2d(396, 396, kernel_size=(3, 3), stride=(1, 1), padding=(1, 1), groups=396, bias=False)\n",
+      "          (1): Conv2d(396, 396, kernel_size=(5, 5), stride=(1, 1), padding=(2, 2), groups=396, bias=False)\n",
+      "          (2): Conv2d(396, 396, kernel_size=(7, 7), stride=(1, 1), padding=(3, 3), groups=396, bias=False)\n",
+      "          (3): Conv2d(396, 396, kernel_size=(9, 9), stride=(1, 1), padding=(4, 4), groups=396, bias=False)\n",
+      "        )\n",
+      "        (bn2): BatchNorm2d(1584, eps=1e-05, momentum=0.1, affine=True, track_running_stats=True)\n",
+      "        (act2): Swish()\n",
+      "        (se): SqueezeExcite(\n",
+      "          (avg_pool): AdaptiveAvgPool2d(output_size=1)\n",
+      "          (conv_reduce): Conv2d(1584, 132, kernel_size=(1, 1), stride=(1, 1))\n",
+      "          (act1): Swish()\n",
+      "          (conv_expand): Conv2d(132, 1584, kernel_size=(1, 1), stride=(1, 1))\n",
+      "        )\n",
+      "        (conv_pwl): MixedConv2d(\n",
+      "          (0): Conv2d(792, 132, kernel_size=(1, 1), stride=(1, 1), bias=False)\n",
+      "          (1): Conv2d(792, 132, kernel_size=(1, 1), stride=(1, 1), bias=False)\n",
+      "        )\n",
+      "        (bn3): BatchNorm2d(264, eps=1e-05, momentum=0.1, affine=True, track_running_stats=True)\n",
+      "      )\n",
+      "      (2): InvertedResidual(\n",
+      "        (conv_pw): Conv2d(264, 1584, kernel_size=(1, 1), stride=(1, 1), bias=False)\n",
+      "        (bn1): BatchNorm2d(1584, eps=1e-05, momentum=0.1, affine=True, track_running_stats=True)\n",
+      "        (act1): Swish()\n",
+      "        (conv_dw): MixedConv2d(\n",
+      "          (0): Conv2d(396, 396, kernel_size=(3, 3), stride=(1, 1), padding=(1, 1), groups=396, bias=False)\n",
+      "          (1): Conv2d(396, 396, kernel_size=(5, 5), stride=(1, 1), padding=(2, 2), groups=396, bias=False)\n",
+      "          (2): Conv2d(396, 396, kernel_size=(7, 7), stride=(1, 1), padding=(3, 3), groups=396, bias=False)\n",
+      "          (3): Conv2d(396, 396, kernel_size=(9, 9), stride=(1, 1), padding=(4, 4), groups=396, bias=False)\n",
+      "        )\n",
+      "        (bn2): BatchNorm2d(1584, eps=1e-05, momentum=0.1, affine=True, track_running_stats=True)\n",
+      "        (act2): Swish()\n",
+      "        (se): SqueezeExcite(\n",
+      "          (avg_pool): AdaptiveAvgPool2d(output_size=1)\n",
+      "          (conv_reduce): Conv2d(1584, 132, kernel_size=(1, 1), stride=(1, 1))\n",
+      "          (act1): Swish()\n",
+      "          (conv_expand): Conv2d(132, 1584, kernel_size=(1, 1), stride=(1, 1))\n",
+      "        )\n",
+      "        (conv_pwl): MixedConv2d(\n",
+      "          (0): Conv2d(792, 132, kernel_size=(1, 1), stride=(1, 1), bias=False)\n",
+      "          (1): Conv2d(792, 132, kernel_size=(1, 1), stride=(1, 1), bias=False)\n",
+      "        )\n",
+      "        (bn3): BatchNorm2d(264, eps=1e-05, momentum=0.1, affine=True, track_running_stats=True)\n",
+      "      )\n",
+      "      (3): InvertedResidual(\n",
+      "        (conv_pw): Conv2d(264, 1584, kernel_size=(1, 1), stride=(1, 1), bias=False)\n",
+      "        (bn1): BatchNorm2d(1584, eps=1e-05, momentum=0.1, affine=True, track_running_stats=True)\n",
+      "        (act1): Swish()\n",
+      "        (conv_dw): MixedConv2d(\n",
+      "          (0): Conv2d(396, 396, kernel_size=(3, 3), stride=(1, 1), padding=(1, 1), groups=396, bias=False)\n",
+      "          (1): Conv2d(396, 396, kernel_size=(5, 5), stride=(1, 1), padding=(2, 2), groups=396, bias=False)\n",
+      "          (2): Conv2d(396, 396, kernel_size=(7, 7), stride=(1, 1), padding=(3, 3), groups=396, bias=False)\n",
+      "          (3): Conv2d(396, 396, kernel_size=(9, 9), stride=(1, 1), padding=(4, 4), groups=396, bias=False)\n",
+      "        )\n",
+      "        (bn2): BatchNorm2d(1584, eps=1e-05, momentum=0.1, affine=True, track_running_stats=True)\n",
+      "        (act2): Swish()\n",
+      "        (se): SqueezeExcite(\n",
+      "          (avg_pool): AdaptiveAvgPool2d(output_size=1)\n",
+      "          (conv_reduce): Conv2d(1584, 132, kernel_size=(1, 1), stride=(1, 1))\n",
+      "          (act1): Swish()\n",
+      "          (conv_expand): Conv2d(132, 1584, kernel_size=(1, 1), stride=(1, 1))\n",
+      "        )\n",
+      "        (conv_pwl): MixedConv2d(\n",
+      "          (0): Conv2d(792, 132, kernel_size=(1, 1), stride=(1, 1), bias=False)\n",
+      "          (1): Conv2d(792, 132, kernel_size=(1, 1), stride=(1, 1), bias=False)\n",
+      "        )\n",
+      "        (bn3): BatchNorm2d(264, eps=1e-05, momentum=0.1, affine=True, track_running_stats=True)\n",
+      "      )\n",
+      "    )\n",
+      "  )\n",
+      "  (conv_head): Conv2d(264, 1536, kernel_size=(1, 1), stride=(1, 1), bias=False)\n",
+      "  (bn2): BatchNorm2d(1536, eps=1e-05, momentum=0.1, affine=True, track_running_stats=True)\n",
+      "  (act2): ReLU(inplace=True)\n",
+      "  (global_pool): SelectAdaptivePool2d (output_size=1, pool_type=avg)\n",
+      "  (classifier): Linear(in_features=1536, out_features=1000, bias=True)\n",
+      ")\n"
+     ]
+    }
+   ],
+   "source": [
+    "print(model_ft)"
+   ]
+  },
+  {
+   "cell_type": "code",
+   "execution_count": 6,
+   "metadata": {},
+   "outputs": [
+    {
+     "data": {
+      "text/html": [
+       "\n",
+       "                Logging results to <a href=\"https://wandb.com\" target=\"_blank\">Weights & Biases</a> <a href=\"https://docs.wandb.com/integrations/jupyter.html\" target=\"_blank\">(Documentation)</a>.<br/>\n",
…
