…
-      "----------\n",
-      "train Loss: 0.3000 Acc: 0.8443\n",
-      "val Loss: 0.2486 Acc: 0.9281\n",
-      "\n",
-      "Epoch 21/24\n",
-      "----------\n",
-      "train Loss: 0.2608 Acc: 0.8893\n",
-      "val Loss: 0.2388 Acc: 0.9150\n",
-      "\n",
-      "Epoch 22/24\n",
-      "----------\n",
-      "train Loss: 0.2647 Acc: 0.8893\n",
-      "val Loss: 0.2506 Acc: 0.9281\n",
-      "\n",
-      "Epoch 23/24\n",
-      "----------\n",
-      "train Loss: 0.2071 Acc: 0.9221\n",
-      "val Loss: 0.2492 Acc: 0.9216\n",
-      "\n",
-      "Epoch 24/24\n",
+      "ResNet(\n",
+      "  (conv1): Conv2d(3, 64, kernel_size=(7, 7), stride=(2, 2), padding=(3, 3), bias=False)\n",
+      "  (bn1): BatchNorm2d(64, eps=1e-05, momentum=0.1, affine=True, track_running_stats=True)\n",
+      "  (relu): ReLU(inplace=True)\n",
+      "  (maxpool): MaxPool2d(kernel_size=3, stride=2, padding=1, dilation=1, ceil_mode=False)\n",
+      "  (layer1): Sequential(\n",
+      "    (0): BasicBlock(\n",
+      "      (conv1): Conv2d(64, 64, kernel_size=(3, 3), stride=(1, 1), padding=(1, 1), bias=False)\n",
+      "      (bn1): BatchNorm2d(64, eps=1e-05, momentum=0.1, affine=True, track_running_stats=True)\n",
+      "      (relu): ReLU(inplace=True)\n",
+      "      (conv2): Conv2d(64, 64, kernel_size=(3, 3), stride=(1, 1), padding=(1, 1), bias=False)\n",
+      "      (bn2): BatchNorm2d(64, eps=1e-05, momentum=0.1, affine=True, track_running_stats=True)\n",
+      "    )\n",
+      "    (1): BasicBlock(\n",
+      "      (conv1): Conv2d(64, 64, kernel_size=(3, 3), stride=(1, 1), padding=(1, 1), bias=False)\n",
+      "      (bn1): BatchNorm2d(64, eps=1e-05, momentum=0.1, affine=True, track_running_stats=True)\n",
+      "      (relu): ReLU(inplace=True)\n",
+      "      (conv2): Conv2d(64, 64, kernel_size=(3, 3), stride=(1, 1), padding=(1, 1), bias=False)\n",
+      "      (bn2): BatchNorm2d(64, eps=1e-05, momentum=0.1, affine=True, track_running_stats=True)\n",
+      "    )\n",
+      "  )\n",
+      "  (layer2): Sequential(\n",
+      "    (0): BasicBlock(\n",
+      "      (conv1): Conv2d(64, 128, kernel_size=(3, 3), stride=(2, 2), padding=(1, 1), bias=False)\n",
+      "      (bn1): BatchNorm2d(128, eps=1e-05, momentum=0.1, affine=True, track_running_stats=True)\n",
+      "      (relu): ReLU(inplace=True)\n",
+      "      (conv2): Conv2d(128, 128, kernel_size=(3, 3), stride=(1, 1), padding=(1, 1), bias=False)\n",
+      "      (bn2): BatchNorm2d(128, eps=1e-05, momentum=0.1, affine=True, track_running_stats=True)\n",
+      "      (downsample): Sequential(\n",
+      "        (0): Conv2d(64, 128, kernel_size=(1, 1), stride=(2, 2), bias=False)\n",
+      "        (1): BatchNorm2d(128, eps=1e-05, momentum=0.1, affine=True, track_running_stats=True)\n",
+      "      )\n",
+      "    )\n",
+      "    (1): BasicBlock(\n",
+      "      (conv1): Conv2d(128, 128, kernel_size=(3, 3), stride=(1, 1), padding=(1, 1), bias=False)\n",
+      "      (bn1): BatchNorm2d(128, eps=1e-05, momentum=0.1, affine=True, track_running_stats=True)\n",
+      "      (relu): ReLU(inplace=True)\n",
+      "      (conv2): Conv2d(128, 128, kernel_size=(3, 3), stride=(1, 1), padding=(1, 1), bias=False)\n",
+      "      (bn2): BatchNorm2d(128, eps=1e-05, momentum=0.1, affine=True, track_running_stats=True)\n",
+      "    )\n",
+      "  )\n",
+      "  (layer3): Sequential(\n",
+      "    (0): BasicBlock(\n",
+      "      (conv1): Conv2d(128, 256, kernel_size=(3, 3), stride=(2, 2), padding=(1, 1), bias=False)\n",
+      "      (bn1): BatchNorm2d(256, eps=1e-05, momentum=0.1, affine=True, track_running_stats=True)\n",
+      "      (relu): ReLU(inplace=True)\n",
+      "      (conv2): Conv2d(256, 256, kernel_size=(3, 3), stride=(1, 1), padding=(1, 1), bias=False)\n",
+      "      (bn2): BatchNorm2d(256, eps=1e-05, momentum=0.1, affine=True, track_running_stats=True)\n",
+      "      (downsample): Sequential(\n",
+      "        (0): Conv2d(128, 256, kernel_size=(1, 1), stride=(2, 2), bias=False)\n",
+      "        (1): BatchNorm2d(256, eps=1e-05, momentum=0.1, affine=True, track_running_stats=True)\n",
+      "      )\n",
+      "    )\n",
+      "    (1): BasicBlock(\n",
+      "      (conv1): Conv2d(256, 256, kernel_size=(3, 3), stride=(1, 1), padding=(1, 1), bias=False)\n",
+      "      (bn1): BatchNorm2d(256, eps=1e-05, momentum=0.1, affine=True, track_running_stats=True)\n",
+      "      (relu): ReLU(inplace=True)\n",
+      "      (conv2): Conv2d(256, 256, kernel_size=(3, 3), stride=(1, 1), padding=(1, 1), bias=False)\n",
+      "      (bn2): BatchNorm2d(256, eps=1e-05, momentum=0.1, affine=True, track_running_stats=True)\n",
+      "    )\n",
+      "  )\n",
+      "  (layer4): Sequential(\n",
+      "    (0): BasicBlock(\n",
+      "      (conv1): Conv2d(256, 512, kernel_size=(3, 3), stride=(2, 2), padding=(1, 1), bias=False)\n",
+      "      (bn1): BatchNorm2d(512, eps=1e-05, momentum=0.1, affine=True, track_running_stats=True)\n",
+      "      (relu): ReLU(inplace=True)\n",
+      "      (conv2): Conv2d(512, 512, kernel_size=(3, 3), stride=(1, 1), padding=(1, 1), bias=False)\n",
+      "      (bn2): BatchNorm2d(512, eps=1e-05, momentum=0.1, affine=True, track_running_stats=True)\n",
+      "      (downsample): Sequential(\n",
+      "        (0): Conv2d(256, 512, kernel_size=(1, 1), stride=(2, 2), bias=False)\n",
+      "        (1): BatchNorm2d(512, eps=1e-05, momentum=0.1, affine=True, track_running_stats=True)\n",
+      "      )\n",
+      "    )\n",
+      "    (1): BasicBlock(\n",
+      "      (conv1): Conv2d(512, 512, kernel_size=(3, 3), stride=(1, 1), padding=(1, 1), bias=False)\n",
+      "      (bn1): BatchNorm2d(512, eps=1e-05, momentum=0.1, affine=True, track_running_stats=True)\n",
+      "      (relu): ReLU(inplace=True)\n",
+      "      (conv2): Conv2d(512, 512, kernel_size=(3, 3), stride=(1, 1), padding=(1, 1), bias=False)\n",
+      "      (bn2): BatchNorm2d(512, eps=1e-05, momentum=0.1, affine=True, track_running_stats=True)\n",
+      "    )\n",
+      "  )\n",
+      "  (avgpool): AdaptiveAvgPool2d(output_size=(1, 1))\n",
+      "  (fc): Linear(in_features=512, out_features=2, bias=True)\n",
+      ")\n"
+     ]
+    }
+   ],
+   "source": [
+    "print(model_ft)"
+   ]
+  },
+  {
+   "cell_type": "code",
+   "execution_count": 11,
+   "metadata": {},
+   "outputs": [
+    {
+     "name": "stdout",
+     "output_type": "stream",
+     "text": [
+      "Epoch 0/0\n",
       "----------\n",
-      "train Loss: 0.2519 Acc: 0.8934\n",
-      "val Loss: 0.2466 Acc: 0.9346\n",
…
